tf_lite_quant_model.tflite (tflite, 39936 bytes, 6 tensors)

sequential_1/dense_1/BiasAdd/ReadVariableOp f4 [10]
000000 5c 78 35 3d 73 3b 24 3e 7e f0 5f bc 11 e1 82 bd
       0.044304237 0.16038303 -0.013668178 -0.06390584
000010 03 12 be bd ab cb 06 bd 18 6d 40 bc 6b fb 7c bc
       -0.09280779 -0.032909077 -0.01174476 -0.015440802
000020 98 ab 75 3c 38 1f 19 3c
       0.014994524 0.009345822

sequential_1/conv2d_2/BiasAdd/ReadVariableOp f4 [32]
000000 d2 e6 ea 3c b9 4a 8b bc 98 64 f9 bd 62 05 ab bc
       0.028674517 -0.017003404 -0.1217739 -0.02087659
000010 df 97 0b 3e 7b 2f b5 bc 80 2b 16 be 01 fa 86 bc
       0.13632153 -0.022117367 -0.14665031 -0.016476633
000020 2e ea bf bd fb 78 97 3d 14 56 47 3d a8 cf 85 3d
       -0.09370838 0.07396122 0.048666075 0.06533748
000030 e2 27 c4 bc 97 fa a7 bc ab 04 86 3c 4d 7a 42 bb
       -0.023944799 -0.020505233 0.016359648 -0.0029674948
000040 df 18 c7 bb 24 1e 77 bd 39 32 70 3d ff ac 03 be
       -0.006075963 -0.06033148 0.058641646 -0.12858962
000050 eb d8 bd bd 09 af bf bd 84 55 a2 bd 3a c9 25 bd
       -0.092698894 -0.09359557 -0.07926467 -0.040475108
000060 61 f6 93 bd 41 46 05 be a4 19 83 be 79 40 48 bb
       -0.072247274 -0.13015081 -0.256055 -0.0030556007
000070 69 e6 37 bc 63 0d 1d bd 92 22 f4 bc 80 b6 f5 bd
       -0.011224368 -0.038342845 -0.02980164 -0.119977

sequential_1/conv2d_3/BiasAdd/ReadVariableOp f4 [64]
000000 1e f9 62 be d6 22 26 3d 96 fe 49 bd 25 3a fa bd
       -0.22165343 0.040560566 -0.049315058 -0.122181214
000010 e0 ba b8 bd bb 44 20 bc 56 ea f4 bc fd b0 cf 3a
       -0.090200186 -0.009782012 -0.029896896 0.0015845593
000020 dd ef 69 bd 6d 77 98 bc 98 3c d3 bd b6 a6 fc bc
       -0.057113517 -0.018611634 -0.10314292 -0.030841213
000030 45 ff e4 bb 90 0d 88 bd 3c 20 83 bd 85 7b bd b9
       -0.0069884383 -0.06643212 -0.064026326 -0.00036140918
000040 4a f0 aa bd 2c 3a 10 bd 89 52 c8 bc 5d 4d f8 3c
       -0.08346613 -0.035211727 -0.024453418 0.030310327
000050 80 5c 07 be 61 70 28 bd c6 10 2e bc 79 b4 81 bd
       -0.1321888 -0.041122798 -0.010624116 -0.063332506
000060 84 ab 0e bd 1a 8b f9 bd 56 81 ae bd 22 60 e5 bd
       -0.03483154 -0.12184735 -0.085207626 -0.111999765
000070 d7 e6 56 bc 8e 92 00 3d d0 b1 5a b8 17 46 ae bd
       -0.01311656 0.031389765 -5.214085e-05 -0.08509462
000080 c9 ee a7 bd 5b 5d dc bc db 39 40 be 0c 46 5e bd
       -0.081998415 -0.026899984 -0.1877207 -0.05426602
000090 c8 ee cb 3c ed 08 7d bc 8a 93 25 bc bc c6 1a bc
       0.024894133 -0.015444023 -0.010105977 -0.009446796
0000a0 60 27 84 3b 60 2a 10 bd a3 49 b7 bd 10 84 d6 bc
       0.004033014 -0.035196662 -0.08949592 -0.02618602
0000b0 40 b6 98 bd 90 4a 70 bc 3d c7 39 bd 07 6f 50 bc
       -0.074566364 -0.014666215 -0.045356024 -0.0127217835
0000c0 b6 d8 b3 bc 41 9c b3 bd c2 b2 a5 bd 64 6c 1c bd
       -0.021953922 -0.087700374 -0.08090736 -0.038189307
0000d0 32 b4 45 bd 4e 32 96 bd 9a bb cc bc 2e ee ca 3c
       -0.04826755 -0.073338136 -0.0249918 0.024771776
0000e0 9a a9 39 bd b5 df 8a bc 5c 5c a9 bd 9e be 03 bd
       -0.04532776 -0.016952375 -0.08269569 -0.03216421
0000f0 fb aa b2 bd 19 8a ba 3c 9c 9d 9d bd d0 d4 78 bd
       -0.08724018 0.022770928 -0.07696077 -0.06074983

sequential_1/conv2d_2/Conv2D f4 [32, 3, 3, 1]
000000 36 e0 b0 3e ee 64 ca 3e 5f e2 d5 3e 00 d2 be 3d
       0.3454606 0.39530128 0.4177427 0.09317398
000010 07 dc 8f 3d 77 de 69 3d 61 93 f2 be 94 77 06 bf
       0.07024389 0.057096925 -0.47378066 -0.5252621
000020 48 7f d0 be ef 6f 9f 3c 74 84 b6 be 0d 06 07 bf
       -0.40722108 0.019462554 -0.3564793 -0.5274361
000030 00 1c 8e 3e ab f3 be 3d d4 5d 2b be 61 d0 00 3e
       0.27755737 0.0932382 -0.16735011 0.1257949
000040 68 b9 ae 3e 87 5c 9f 3e 1b b3 36 be 7b f4 f3 3d
       0.3412583 0.3112528 -0.17841761 0.11911865
000050 9c c1 96 3c c5 ab 3c bd af 99 2c 3e 9a 61 ed 3d
       0.018402867 -0.04606225 0.168555 0.11590882
000060 d8 bf ef 3d ac dc 1a 3e 25 f8 c3 bd a8 3f fb bd
       0.11706513 0.15123242 -0.09568814 -0.12268001
000070 dc ac 34 be 92 3f 24 3e 4c a7 5e 3d bd cc fe 3c
       -0.17644066 0.16039875 0.054358765 0.031103486
000080 1d b3 80 3e de 42 73 bc 78 b0 95 bd e3 89 74 3c
       0.25136653 -0.014847485 -0.07309049 0.014925453
000090 e0 97 e7 bd 51 ca 18 bf b4 2f 21 be 72 dd 26 bf
       -0.11308265 -0.5968371 -0.15740854 -0.6518165
0000a0 b9 26 24 be 12 6f be 3e 31 3e f5 be b8 c0 04 3e
       -0.16030397 0.37194115 -0.4789901 0.12964141
0000b0 2f 16 84 3e 23 2d c7 bc 0c 90 42 be 14 62 d9 be
       0.25798175 -0.024313515 -0.19000262 -0.4245764
0000c0 3d 4f 2d 3e 51 85 16 3d e5 20 69 be 21 31 a5 3e
       0.16924758 0.036748234 -0.22766455 0.32264045
0000d0 9b 12 64 3e ad dc ae 3c 96 3c 00 3e 85 ff 85 3c
       0.22272722 0.02134546 0.12523112 0.016357193
0000e0 e0 23 66 be 17 4d b4 3d d3 6d 83 3e 7d 60 8c 3d
       -0.22474623 0.08803766 0.25669727 0.06854341
0000f0 3d 30 57 be 9f 6a bb 3d 3d a1 f5 3d 5a 73 88 bc
       -0.21014495 0.09151196 0.119936444 -0.016656566
000100 e6 f3 e1 b9 00 ab 65 3c df 57 65 3d 77 b3 4d 3e
       -0.00043097063 0.01401782 0.055992004 0.20087992
000110 e0 d5 63 3e c2 9f 60 be c2 79 b7 3c 64 4b 71 be
       0.22249556 -0.21935943 0.022396926 -0.23563915
000120 0d 58 a9 bc 97 57 27 3d f9 80 f3 3d a9 6b b6 3d
       -0.020671869 0.040855017 0.11889834 0.08907253
000130 fc 85 f6 bc e9 aa 06 3e ae ea 53 3e fa 2d 9a 3d
       -0.030093186 0.13151135 0.20694992 0.075283006
000140 7d d1 d3 bd 7b b0 88 be 11 05 ba be e2 62 be be
       -0.10342691 -0.26697144 -0.3633199 -0.37184817
000150 11 eb 8b 3d 47 f8 33 bd 48 a3 7c bd 5d 3e 9c 3e
       0.06831945 -0.043937948 -0.061679155 0.3051633
000160 c1 f4 89 3e de 68 bc 3e 52 60 d5 be c4 74 12 be
       0.26944545 0.36798757 -0.4167505 -0.14302355
000170 58 9b 06 3e 24 04 44 3c 01 d4 3f be 08 90 21 be
       0.13145196 0.011963878 -0.18733217 -0.157776
000180 53 57 d0 3e 39 7c 41 3e 8a 73 78 3d 54 ce d0 3e
       0.40691623 0.18895043 0.06065706 0.40782416
000190 12 36 16 bf 7b df 71 be fb b1 22 bf 5c b0 e7 be
       -0.58676255 -0.23620407 -0.63552827 -0.4525174
0001a0 9e 84 61 3e 3a 71 13 bf 7d c7 73 3e a8 f3 d2 3e
       0.22023246 -0.57594645 0.23806567 0.4120152
0001b0 d1 9a 4a 3d 65 48 c9 bd 6f 92 e1 3d 9b df 0d 3e
       0.04946405 -0.09828261 0.11014258 0.1385483
0001c0 8e 95 b8 bd 16 38 c1 3d 78 70 6a 3d 75 49 93 3c
       -0.090129 0.09434526 0.057236165 0.017979363
0001d0 b4 81 3b 3d a8 69 5d be 5c 6e 09 3e 3e d5 a3 3d
       0.04577799 -0.21622336 0.13421005 0.07999657
0001e0 99 d3 a5 3e bb eb 87 3e c4 ae 0f bd a5 e7 58 bd
       0.32388 0.26547036 -0.03507878 -0.05295529
0001f0 a7 e2 7a be 2d a3 94 be 42 45 92 3e b3 5b 84 3d
       -0.24500524 -0.29030743 0.28568465 0.06462803
000200 a2 95 1b bf d5 84 9b 3e 12 6e 77 3e f8 dd 13 bf
       -0.60775197 0.3037478 0.24163082 -0.5776057
000210 b6 a9 49 3e 07 3f 8b 3e 20 ad 27 be 15 bf e4 be
       0.19693646 0.27196524 -0.16374636 -0.44677034
000220 5a 88 94 3c 12 76 c5 3e a6 c1 bc be 2b 3f db bc
       0.018131424 0.38566643 -0.36866492 -0.02676352
000230 13 98 84 3e f8 49 c4 be 15 bc 08 be ce 16 b7 3e
       0.25897273 -0.38337684 -0.13352998 0.35759586
000240 43 6e ec bd 62 b3 fb be 4d 07 ac be 7e 34 83 3e
       -0.11544468 -0.49160296 -0.3359932 0.25625986
000250 24 6d fc 3c c1 b8 b9 bd e1 2b 58 3e 1a 01 ab 3e
       0.030813761 -0.09068442 0.21110488 0.33399278
000260 c5 ed 15 3e 2e f1 20 3e 5b 0b 7a 3e d4 b6 78 3e
       0.14641483 0.15717003 0.24418394 0.24288493
000270 01 91 26 be 2f 35 93 3d 0c 95 c5 3e 22 3c 0f bf
       -0.16266252 0.07187878 0.38590276 -0.5595113
000280 a2 b1 d0 be fb f4 1b 3e 6b d2 d6 be 99 00 00 bf
       -0.40760523 0.15230171 -0.4195741 -0.5000091
000290 ad 33 3f be f5 4c ee be c9 ce ca 3d f2 19 47 3e
       -0.18672056 -0.4654309 0.099027224 0.19443491
0002a0 cf 6e 58 bd f8 0d db 3e 60 80 d4 3e 58 c5 54 3e
       -0.05284005 0.42784095 0.41504192 0.20778406
0002b0 f5 c1 c8 3d e3 b0 cc 3c 1a 95 af bd f1 10 1f 3e
       0.09802619 0.02498669 -0.08573361 0.15533806
0002c0 16 72 94 3d ed 42 32 3d b0 6d 2e 3e 05 cc 1c 3e
       0.07248323 0.043520857 0.1703403 0.15312202
0002d0 27 dd e7 bc ce 9c 2a 3e 89 fe 0d 3e 62 84 ac be
       -0.028303696 0.16661379 0.13866629 -0.3369475
0002e0 a5 ed a0 bd 00 74 7e 3e d3 a4 a7 be b8 1f aa 3d
       -0.07857827 0.24848938 -0.32742938 0.08306831
0002f0 9f 9a 72 3e 6e 0e b8 3d 89 c5 be bb ee 5c df 3d
       0.23691796 0.08987127 -0.005821888 0.10906397
000300 e1 0c 5f 3e 9f 2b fc 3d 2d a3 ba bd 7f 67 53 3c
       0.21782257 0.123130076 -0.091131546 0.012903093
000310 00 f9 a9 3d 2e f3 4d be 2f 7c 1e bd c8 31 03 3e
       0.08299446 -0.20112297 -0.03869265 0.12811959
000320 9f 6c 82 bc 8f b3 5b 3c 0c 3b 1f 3e 88 ea df ba
       -0.015920935 0.013409509 0.15549868 -0.0017083446
000330 11 ae 6a 3e f0 bb d8 3d 01 21 73 be 0a c6 f0 3d
       0.22917964 0.10582721 -0.23743059 0.11756523
000340 4f cd d7 bd 1f 31 97 3d 2e 65 08 3e d6 50 df 3d
       -0.105372064 0.07382416 0.13319847 0.1090409
000350 e8 01 03 3e 3d 28 e3 3c 46 fc 78 bc 67 2d c2 3d
       0.12793696 0.027729148 -0.015196865 0.09481316
000360 1a 1b f9 be 0f 62 64 be 61 fa 34 3e af ec be be
       -0.4865349 -0.22303031 0.17673637 -0.3728995
000370 19 8b d3 3d 3e 80 bf 3e 21 30 16 3e df e2 61 3e
       0.10329265 0.3740253 0.14666797 0.220592
000380 ea be 5e 3e c4 08 4d 3e bb 72 82 3e 6d 9a b0 be
       0.21752515 0.20022875 0.25478157 -0.34492818
000390 0b ed 37 be 36 91 3c 3e 43 12 c0 3d 83 46 68 be
       -0.17961518 0.18414769 0.09378483 -0.22683148
0003a0 27 5c f8 bc fe 81 6b 3e 49 84 0b 3e 96 f4 9e 3c
       -0.03031738 0.22998807 0.13624682 0.019403737
0003b0 aa 78 a1 bd 3b 61 f1 3d a7 df f5 3d 48 4f e9 bd
       -0.07884343 0.11786123 0.12005549 -0.11392075
0003c0 d9 74 ea bd d1 0f 19 3e ae 6c 84 3e bd f7 30 3d
       -0.11448068 0.1494744 0.25864166 0.04320501
0003d0 59 53 60 3e f8 d0 5a 3e 08 49 c4 3d 16 d8 37 3e
       0.21906795 0.21368778 0.09584242 0.17953524
0003e0 3c 48 af 3d 58 d6 90 be 41 e5 e8 be d1 64 7c bd
       0.085586995 -0.2828853 -0.45487407 -0.061619584
0003f0 7f 7b f8 bd f8 6e 15 be b3 85 70 be 21 7d 4e 3e
       -0.1213293 -0.14593112 -0.23488502 0.2016492

sequential_1/conv2d_3/Conv2D i1 [64, 3, 3, 32]
000000 d8 16 08 10 09 e9 ed 05 0e 09 f7 11 0f 2d fc f8
       -40 22 8 16 9 -23 -19 5 14 9 -9 17 15 45 -4 -8
000010 08 be 10 fd e4 08 01 0d 0c cc ec df fd 1f fe 00
       8 -66 16 -3 -28 8 1 13 12 -52 -20 -33 -3 31 -2 0
000020 29 dc 09 14 09 d5 ed 08 13 eb cf 35 fe 21 e9 f0
       41 -36 9 20 9 -43 -19 8 19 -21 -49 53 -2 33 -23 -16
000030 d6 bb 32 ef f9 07 13 ef 2e e6 e5 f0 ea 32 f5 0c
       -42 -69 50 -17 -7 7 19 -17 46 -26 -27 -16 -22 50 -11 12
000040 1e 00 00 ff de ec f8 ea fe 0b 17 f6 f5 10 f4 de
       30 0 0 -1 -34 -20 -8 -22 -2 11 23 -10 -11 16 -12 -34
000050 ff 04 fb f0 fb f4 fc f7 1d 0e 09 0c f7 1d f0 f5
       -1 4 -5 -16 -5 -12 -4 -9 29 14 9 12 -9 29 -16 -11
000060 b8 10 0f ff f1 fd 14 f9 fd e3 e4 13 12 fe 30 09
       -72 16 15 -1 -15 -3 20 -7 -3 -29 -28 19 18 -2 48 9
000070 f7 f2 d5 00 ff 00 01 04 f5 1b 1b ee fd e2 f4 fb
       -9 -14 -43 0 -1 0 1 4 -11 27 27 -18 -3 -30 -12 -5
000080 ef f9 07 0a f4 ff f4 f6 0d e3 f5 1f fd 1e 0e f8
       -17 -7 7 10 -12 -1 -12 -10 13 -29 -11 31 -3 30 14 -8
000090 f8 ed f3 f8 f3 fd 05 f7 12 f9 fb 03 01 24 ef 08
       -8 -19 -13 -8 -13 -3 5 -9 18 -7 -5 3 1 36 -17 8
0000a0 02 e3 f7 00 fa d7 00 f5 f1 ea 03 22 ff 05 ee 07
       2 -29 -9 0 -6 -41 0 -11 -15 -22 3 34 -1 5 -18 7
0000b0 f3 25 f7 00 22 eb 0a fd 09 45 fc 0f e5 29 df 0e
       -13 37 -9 0 34 -21 10 -3 9 69 -4 15 -27 41 -33 14
0000c0 e4 e8 f8 11 e9 e3 ff 06 f4 9a dd fa ff 0c 14 2f
       -28 -24 -8 17 -23 -29 -1 6 -12 -102 -35 -6 -1 12 20 47
0000d0 bb 24 cb 05 19 f6 fe ea e6 21 f7 f8 dd c9 f5 00
       -69 36 -53 5 25 -10 -2 -22 -26 33 -9 -8 -35 -55 -11 0
0000e0 d5 3e ec 05 93 36 24 02 03 0f 08 81 0e 00 46 2c
       -43 62 -20 5 -109 54 36 2 3 15 8 -127 14 0 70 44
0000f0 36 2e 9a f6 1c 0b ed f6 f9 2c 23 fe 17 dd 0d f1
       54 46 -102 -10 28 11 -19 -10 -7 44 35 -2 23 -35 13 -15

sequential_1/dense_1/MatMul i1 [10, 1600] scale=0.0047483295 zero_point=0
000000 f3 07 fd f5 e3 f9 f9 df f1 05 e8 01 fa f8 f6 00
       -0.061728284 0.033238307 -0.014244989 -0.052231625 -0.13770156 -0.033238307 -0.033238307 -0.15669487 -0.07122494 0.023741648 -0.11395991 0.0047483295 -0.028489977 -0.037986636 -0.047483295 0.0
000010 e8 f2 03 fd e8 eb ff f4 ed 0d 08 00 06 0b e7 01
       -0.11395991 -0.06647661 0.014244989 -0.014244989 -0.11395991 -0.09971492 -0.0047483295 -0.056979954 -0.09021826 0.061728284 0.037986636 0.0 0.028489977 0.052231625 -0.11870824 0.0047483295
000020 ed ee ff f8 0c fb f2 0d f6 fc ee ef 16 f8 06 ec
       -0.09021826 -0.08546993 -0.0047483295 -0.037986636 0.056979954 -0.023741648 -0.06647661 0.061728284 -0.047483295 -0.018993318 -0.08546993 -0.0807216 0.10446325 -0.037986636 0.028489977 -0.09496659
000030 0b 00 f4 03 ff ed ef d5 e6 d0 f5 db fd de f6 16
       0.052231625 0.0 -0.056979954 0.014244989 -0.0047483295 -0.09021826 -0.0807216 -0.20417817 -0.12345657 -0.22791982 -0.052231625 -0.17568819 -0.014244989 -0.1614432 -0.047483295 0.10446325
000040 f5 de f9 fd f0 d5 f5 d0 f1 fc e7 f1 fd db 0f fa
       -0.052231625 -0.1614432 -0.033238307 -0.014244989 -0.07597327 -0.20417817 -0.052231625 -0.22791982 -0.07122494 -0.018993318 -0.11870824 -0.07122494 -0.014244989 -0.17568819 0.07122494 -0.028489977
000050 ef d8 fe f3 ec d3 f4 ff e0 08 d1 d6 fd f9 e0 fb
       -0.0807216 -0.18993318 -0.009496659 -0.061728284 -0.09496659 -0.21367483 -0.056979954 -0.0047483295 -0.15194654 0.037986636 -0.22317149 -0.19942984 -0.014244989 -0.033238307 -0.15194654 -0.023741648
000060 db d5 06 cd fa 00 ef e7 01 f5 15 f5 f5 e6 e8 e0
       -0.17568819 -0.20417817 0.028489977 -0.2421648 -0.028489977 0.0 -0.0807216 -0.11870824 0.0047483295 -0.052231625 0.09971492 -0.052231625 -0.052231625 -0.12345657 -0.11395991 -0.15194654
000070 02 e9 0d eb c3 ea ea 00 ce e9 ed f7 f6 e8 fc e7
       0.009496659 -0.10921158 0.061728284 -0.09971492 -0.28964812 -0.10446325 -0.10446325 0.0 -0.23741648 -0.10921158 -0.09021826 -0.042734966 -0.047483295 -0.11395991 -0.018993318 -0.11870824
000080 ec 05 02 f4 04 ff f0 cf f7 fd 00 07 fd 11 f7 02
       -0.09496659 0.023741648 0.009496659 -0.056979954 0.018993318 -0.0047483295 -0.07597327 -0.23266815 -0.042734966 -0.014244989 0.0 0.033238307 -0.014244989 0.0807216 -0.042734966 0.009496659
000090 ff 08 fe ed e3 f0 06 06 f7 f0 f6 03 f6 06 eb 0a
       -0.0047483295 0.037986636 -0.009496659 -0.09021826 -0.13770156 -0.07597327 0.028489977 0.028489977 -0.042734966 -0.07597327 -0.047483295 0.014244989 -0.047483295 0.028489977 -0.09971492 0.047483295
0000a0 df f2 05 f7 ff e3 f0 f1 fd 04 02 f3 10 f8 de d0
       -0.15669487 -0.06647661 0.023741648 -0.042734966 -0.0047483295 -0.13770156 -0.07597327 -0.07122494 -0.014244989 0.018993318 0.009496659 -0.061728284 0.07597327 -0.037986636 -0.1614432 -0.22791982
0000b0 fb f5 f7 fb f1 dc ef 0a f6 e8 05 f0 08 eb f8 06
       -0.023741648 -0.052231625 -0.042734966 -0.023741648 -0.07122494 -0.17093986 -0.0807216 0.047483295 -0.047483295 -0.11395991 0.023741648 -0.07597327 0.037986636 -0.09971492 -0.037986636 0.028489977
0000c0 1b f9 09 fe f1 f4 0d e1 00 09 05 ff ff e3 00 00
       0.1282049 -0.033238307 0.042734966 -0.009496659 -0.07122494 -0.056979954 0.061728284 -0.14719822 0.0 0.042734966 0.023741648 -0.0047483295 -0.0047483295 -0.13770156 0.0 0.0
0000d0 fd 07 09 e8 f6 06 0b 0f 08 fd 0e 02 f4 04 e0 03
       -0.014244989 0.033238307 0.042734966 -0.11395991 -0.047483295 0.028489977 0.052231625 0.07122494 0.037986636 -0.014244989 0.06647661 0.009496659 -0.056979954 0.018993318 -0.15194654 0.014244989
0000e0 fc 0d fd 04 0c f7 09 16 05 ea 18 fb f7 fb ff ee
       -0.018993318 0.061728284 -0.014244989 0.018993318 0.056979954 -0.042734966 0.042734966 0.10446325 0.023741648 -0.10446325 0.11395991 -0.023741648 -0.042734966 -0.023741648 -0.0047483295 -0.08546993
0000f0 0b f4 02 f2 fb e8 0c f4 00 fc fb ed f4 f6 fa d5
       0.052231625 -0.056979954 0.009496659 -0.06647661 -0.023741648 -0.11395991 0.056979954 -0.056979954 0.0 -0.018993318 -0.023741648 -0.09021826 -0.056979954 -0.047483295 -0.028489977 -0.20417817
