tf_lite_float_16_model.tflite (tflite, 73612 bytes, 6 tensors)

sequential_1/conv2d_2/BiasAdd/ReadVariableOp f2 [32]
00000000: 5727 5aa4 cbaf 58a5 5d30 a9a5 b1b0 38a4
00000010: ffad bc2c 3b2a 2e2c 21a6 40a5 3024 149a
00000020: 399e b9ab 822b 1db0 efad fdad 13ad 2ea9
00000030: a0ac 2ab0 19b4 429a bfa1 e8a8 a1a7 aeaf
0.02867 -0.017 -0.12177 -0.02087 0.1364 -0.02211 -0.1466 -0.01648
-0.0937 0.074 0.04868 0.0653 -0.02394 -0.02051 0.01636 -0.002968
-0.006077 -0.06033 0.05865 -0.1285 -0.0927 -0.09357 -0.0793 -0.04047
-0.07227 -0.1301 -0.256 -0.003056 -0.01122 -0.03833 -0.0298 -0.12

sequential_1/conv2d_3/BiasAdd/ReadVariableOp f2 [64]
00000000: 18b3 3129 50aa d2af c6ad 02a1 a7a7 7e16
00000010: 4fab c4a4 9aae e5a7 289f 40ac 19ac ec8d
00000020: 58ad 82a8 43a6 c227 3bb0 44a9 71a1 0eac
00000030: 75a8 ccaf 74ad 2baf b7a2 0528 6b83 72ad
00000040: 3fad e3a6 02b2 f2aa 5f26 e8a3 2da1 d6a0
00000050: 211c 81a8 baad b4a6 c6ac 82a3 cea9 83a2
00000060: 9fa5 9dad 2ead e3a8 2eaa b2ac 66a6 5726
00000070: cda9 57a4 4bad 1ea8 95ad d425 edac c7ab
-0.2217 0.04056 -0.04932 -0.1222 -0.0902 -0.00978 -0.02989 0.001585
-0.0571 -0.01862 -0.10315 -0.03084 -0.00699 -0.0664 -0.064 -0.0003614
-0.0835 -0.03522 -0.02446 0.0303 -0.1322 -0.04114 -0.01063 -0.06335
-0.03482 -0.1218 -0.0852 -0.112 -0.013115 0.0314 -5.215e-05 -0.0851
-0.082 -0.0269 -0.1877 -0.05426 0.02489 -0.01544 -0.01011 -0.009445
0.004032 -0.0352 -0.0895 -0.02618 -0.0746 -0.01466 -0.04535 -0.01272
-0.02196 -0.0877 -0.08093 -0.03818 -0.04828 -0.07336 -0.025 0.02477
-0.04532 -0.01695 -0.0827 -0.03217 -0.0872 0.02277 -0.07697 -0.06076

sequential_1/conv2d_2/Conv2D f2 [32, 3, 3, 1]
00000000: 8735 5336 af36 f72d 7f2c 4f2b 95b7 34b8
00000010: 84b6 fb24 b4b5 38b8 7134 f82d 5bb1 0730
00000020: 7635 fb34 b6b1 a02f b624 e5a9 6531 6b2f
00000030: 7e2f d730 20ae daaf a5b1 2231 f52a f627
00000040: 0634 9aa3 aeac a423 3daf c6b8 09b1 37b9
00000050: 21b1 f335 aab7 2630 2134 39a6 15b2 cbb6
00000060: 6a31 b428 49b3 2a35 2133 7725 0230 3024
00000070: 31b3 a22d 1b34 632c bab2 db2d ad2f 44a4
00000080: 108f 2d23 2b2b 6e32 1f33 05b3 bc25 8ab3
00000090: 4ba5 3b29 9c2f b32d b4a7 3530 9f32 d12c
000000a0: 9fae 46b4 d0b5 f3b5 5f2c a0a9 e5ab e234
000000b0: 5034 e335 abb6 94b0 3530 2022 ffb1 0db1
000000c0: 8336 0c32 c42b 8636 b2b8 8fb3 16b9 3eb7
000000d0: 0c33 9cb8 9e33 9836 552a 4aae 0d2f 6f30
000000e0: c5ad 0a2e 542b 9a24 dc29 ebb2 4b30 1f2d
000000f0: 2f35 3f34 7da8 c7aa d7b3 a5b4 9234 232c
00000100: ddb8 dc34 bb33 9fb8 4d32 5a34 3db1 26b7
00000110: a424 2c36 e6b5 daa6 2534 22b6 46b0 b935
00000120: 63af deb7 60b5 1a34 e327 cead c132 5835
00000130: af30 0831 d033 c633 35b1 9a2c 2d36 7ab8
00000140: 86b6 e030 b7b6 00b8 fab1 72b7 562e 3932
00000150: c3aa d836 a436 a632 462e 6626 7dad f930
00000160: a42c 9229 7331 e630 3fa7 5531 7030 64b5
00000170: 07ad f433 3db5 512d 9533 c02d f69d fb2e
00000180: f832 e12f d5ad 9b22 502d 70b2 f4a8 1a30
00000190: 13a4 de22 fa30 ff96 5533 c62e 99b3 862f
000001a0: beae ba2c 4330 fb2e 1830 1927 c8a3 112e
000001b0: c9b7 23b3 a831 f7b5 9c2e fc35 b230 0f33
000001c0: f632 6832 1434 85b5 bfb1 e531 012e 42b3
000001d0: c3a7 5c33 5c30 f824 0cad 8b2f af2f 4aaf
000001e0: 54af c830 2334 8829 0333 d732 222e bf31
000001f0: 7a2d 87b4 47b7 e3ab c4af abb0 84b3 7432
0.3455 0.3953 0.4177 0.0932 0.07025 0.0571 -0.4739 -0.5254
-0.4072 0.01945 -0.3564 -0.5273 0.2776 0.09326 -0.1674 0.1259
0.3413 0.3113 -0.1785 0.11914 0.0184 -0.04605 0.1686 0.1159
0.11707 0.1512 -0.0957 -0.1227 -0.1764 0.1604 0.05435 0.0311
0.2515 -0.01485 -0.0731 0.01492 -0.1131 -0.5967 -0.1573 -0.652
-0.1603 0.3718 -0.479 0.1296 0.258 -0.0243 -0.1901 -0.4246
0.1692 0.03674 -0.2277 0.3228 0.2228 0.02135 0.1252 0.01636
-0.2247 0.088 0.2566 0.06854 -0.2102 0.0915 0.11993 -0.01666
-0.000431 0.014015 0.056 0.2009 0.2225 -0.2194 0.0224 -0.2356
-0.02068 0.04086 0.1189 0.08905 -0.03009 0.1315 0.2069 0.07526
-0.10345 -0.267 -0.3633 -0.3718 0.0683 -0.04395 -0.06168 0.3052
0.2695 0.368 -0.4167 -0.1431 0.1315 0.01196 -0.1874 -0.1578
0.407 0.189 0.06067 0.4077 -0.587 -0.2362 -0.6357 -0.4526
0.2202 -0.576 0.238 0.412 0.04947 -0.09827 0.11017 0.1385
-0.09015 0.09436 0.05725 0.01797 0.04578 -0.2162 0.1342 0.08
0.324 0.2654 -0.03506 -0.05295 -0.245 -0.2903 0.2856 0.06464
-0.608 0.3037 0.2416 -0.5776 0.1969 0.272 -0.1637 -0.4468
0.01813 0.3857 -0.3687 -0.02676 0.259 -0.3833 -0.1335 0.3577
-0.1154 -0.4917 -0.336 0.2563 0.0308 -0.0907 0.211 0.334
0.1464 0.1572 0.2441 0.2429 -0.1627 0.0719 0.386 -0.5596
-0.4077 0.1523 -0.4197 -0.5 -0.1868 -0.4653 0.099 0.1945
-0.05283 0.4277 0.415 0.2078 0.098 0.025 -0.08575 0.1554
0.0725 0.04352 0.1703 0.1531 -0.0283 0.1666 0.1387 -0.337
-0.07855 0.2485 -0.3274 0.08307 0.2369 0.08984 -0.00582 0.1091
0.2178 0.1231 -0.0911 0.0129 0.083 -0.2012 -0.0387 0.1282
-0.01591 0.01341 0.1555 -0.001708 0.2291 0.10583 -0.2374 0.11755
-0.10535 0.07385 0.1332 0.1091 0.1279 0.02773 -0.0152 0.0948
-0.4866 -0.223 0.1768 -0.3728 0.1033 0.374 0.1467 0.2206
0.2175 0.2002 0.255 -0.345 -0.1796 0.1842 0.0938 -0.2268
-0.03032 0.23 0.1362 0.01941 -0.07886 0.11786 0.12006 -0.1139
-0.1145 0.1494 0.2585 0.0432 0.2191 0.2137 0.0958 0.1796
0.0856 -0.283 -0.4548 -0.0616 -0.12134 -0.1459 -0.2349 0.2017

sequential_1/conv2d_3/Conv2D f2 [64, 3, 3, 32]
00000000: 25b2 b52e 9d28 dd2c 6c29 13af d0ad a226
00000010: 6e2c 3d29 cfa9 102d b22c e832 b6a4 98a8
00000020: eb28 11b5 ce2c 50a2 3db0 2029 4b1e 202c
00000030: 132b f1b3 0cae 11b1 57a2 b430 de9f c70c
00000040: 5632 83b1 6f29 3f2e c829 95b2 f4ad 2a29
00000050: d62d 78ae 87b3 0534 62a1 1b31 2faf c7ac
00000060: 64b2 42b5 9933 57ad 80a8 7d28 e52d 2ead
00000070: f632 09b0 0eb0 05ad d0ae ac33 c3aa 252b
00000080: 9230 b893 9995 3199 29b1 35ae c5a8 99ae
00000090: eca1 6d2a f52e 47aa 6caa d52c 35ab 3eb1
000000a0: 059f 2725 b9a5 f1ac aea5 78ab 6da4 aea9
000000b0: 6130 622c 7829 332b bca9 5e30 eaac d7aa
000000c0: 83b5 c62c a92c ad9a abac b4a3 352e 63a8
000000d0: 17a4 6eb0 57b0 cb2d 7c2d c3a0 6333 7129
000000e0: 3aa9 50ac 8fb2 8c8c 0e9c 130e e41e ed24
000000f0: d9aa 2430 2230 90ad f7a2 8bb0 55ab b8a6
00000100: 59ad 0da8 2b28 e629 93ab 689d 1dab 52aa
00000110: fa2b 7db0 78aa bf30 76a2 9530 272c 27a9
00000120: d5a8 b8ad 06ac cea8 04ac 3ca4 9826 34a9
00000130: 792d 96a8 32a6 a922 161d 8a31 26ad eb28
00000140: 4620 78b0 5ba9 8c91 2ba7 3db2 0392 b9aa
00000150: 8fac b0ae 2e24 3831 6a9e 6a26 82ad 7128
00000160: baab b731 c2a9 4995 2a31 85ae 022a 42a4
00000170: 8929 4735 52a4 a22c 17b0 4532 19b1 572c
00000180: 35b0 3caf c8a8 172d 23af 70b0 379d 7727
00000190: 33ab d4b7 6bb1 4ba7 d79b 1f2b 422e 1f33
000001a0: 4ab5 7931 0eb4 b325 872f ffa9 dea1 d9ae
000001b0: e7af 1b31 65a9 29a9 5ab1 33b4 f5aa 7797
000001c0: 83b2 bd34 35ae ad25 2cb8 2a34 7e31 e421
000001d0: 2423 bb2c a928 dbb8 602c f995 5535 ba32
000001e0: 2334 1933 c4b7 43aa 4230 ed2a e2ad eba9
000001f0: 71a8 be32 6931 40a0 0e2f 5eb1 1d2c 8bac
-0.192 0.1048 0.03604 0.076 0.04236 -0.11053 -0.0908 0.02591
0.0692 0.04092 -0.04538 0.0791 0.07336 0.2158 -0.0184 -0.0359
0.03842 -0.3167 0.0751 -0.01233 -0.1324 0.04004 0.006145 0.06445
0.05527 -0.2482 -0.0945 -0.1583 -0.01238 0.147 -0.007683 0.0002916
0.198 -0.1722 0.04245 0.0976 0.04517 -0.2057 -0.093 0.04034
0.0912 -0.1011 -0.2352 0.2512 -0.01051 0.1595 -0.11224 -0.07465
-0.1997 -0.3286 0.2374 -0.08344 -0.03516 0.03506 0.0921 -0.08093
0.2175 -0.1261 -0.1267 -0.0784 -0.10645 0.2397 -0.05283 0.05582
0.1428 -0.000942 -0.001367 -0.002535 -0.1613 -0.097 -0.03726 -0.1031
-0.011566 0.0502 0.1087 -0.04904 -0.05017 0.0755 -0.0563 -0.1638
-0.006855 0.02013 -0.02235 -0.0772 -0.02219 -0.05835 -0.01729 -0.04437
0.1368 0.0685 0.04272 0.05624 -0.0448 0.1365 -0.0768 -0.05344
-0.3445 0.0746 0.0728 -0.00326 -0.07294 -0.015045 0.097 -0.03427
-0.01598 -0.1384 -0.1356 0.0905 0.0857 -0.0093 0.2308 0.0425
-0.04083 -0.0674 -0.205 -0.0002775 -0.00396 0.0003707 0.00673 0.01924
-0.0535 0.1294 0.1292 -0.0869 -0.0136 -0.142 -0.05728 -0.02625
-0.08356 -0.03165 0.03256 0.04608 -0.05917 -0.00528 -0.05557 -0.04938
0.06232 -0.1403 -0.05054 0.1483 -0.01262 0.1432 0.0649 -0.04025
-0.03775 -0.08936 -0.06287 -0.03754 -0.06274 -0.01654 0.02576 -0.04065
0.0855 -0.03583 -0.0242 0.01301 0.004967 0.1731 -0.08044 0.03842
0.00835 -0.1396 -0.04184 -0.000677 -0.028 -0.195 -0.000734 -0.05252
-0.0712 -0.1045 0.01633 0.1631 -0.006264 0.02505 -0.08606 0.0347
-0.06036 0.1786 -0.04498 -0.00129 0.1614 -0.10187 0.04694 -0.01663
0.04324 0.3298 -0.01688 0.0724 -0.1278 0.1959 -0.1593 0.0678
-0.1315 -0.11304 -0.03735 0.0795 -0.1115 -0.1387 -0.005093 0.02916
-0.05624 -0.4893 -0.1693 -0.02849 -0.003828 0.05563 0.0978 0.2225
-0.3306 0.171 -0.2534 0.02226 0.1176 -0.04684 -0.01146 -0.107
-0.1235 0.1595 -0.04214 -0.0403 -0.1672 -0.2625 -0.05435 -0.001822
-0.2035 0.2961 -0.097 0.02217 -0.5215 0.2603 0.1716 0.011505
0.01395 0.0739 0.0364 -0.607 0.06836 -0.001458 0.3333 0.2102
0.2585 0.2218 -0.4854 -0.04892 0.133 0.0541 -0.0919 -0.04623
-0.0347 0.2107 0.1691 -0.0083 0.1102 -0.1677 0.0643 -0.071

sequential_1/dense_1/BiasAdd/ReadVariableOp f2 [10]
00000000: ac29 2231 00a3 17ac f1ad 36a8 03a2 e8a3
00000010: ad23 c920
0.0443 0.1604 -0.01367 -0.0639 -0.09283 -0.0329 -0.01174 -0.01544
0.01499 0.009346

sequential_1/dense_1/MatMul f2 [10, 1600]
00000000: caab 7428 6fa2 abaa 55b0 06a8 72a8 11b1
00000010: aaac ac26 3baf 711b 6ca7 eaa8 05aa 7192
00000020: 54af 2dac 0424 7da2 4baf 5eae 209e 5aab
00000030: bbad 172c af28 2e95 5427 e72a 8faf 2e1f
00000040: e5ad 57ad 069f a4a8 822b aba6 2cac 002c
00000050: 12aa b6a4 59ad 22ad cb2e aea8 8f27 2aae
00000060: c72a 1c15 74ab f423 8c9b c9ad 46ad 97b2
00000070: f1af 4fb3 6aaa a6b1 1ba4 3bb1 1baa bd2e
00000080: 73aa 29b1 4da8 dea2 fbac 9ab2 9eaa 5bb3
00000090: 83ac 55a4 86af b4ac d6a2 a1b1 ad2c 06a7
000000a0: 1aad 0cb2 00a1 b1ab 34ae c9b2 18ab e59e
000000b0: dcb0 b128 21b3 5eb2 2fa4 74a8 e1b0 43a6
000000c0: 90b1 87b2 0727 bbb3 0fa7 2595 17ad adaf
000000d0: 1e1d afaa 7c2e daaa cdaa edaf 48af e0b0
000000e0: 3521 f9ae 0e2c 52ae a5b4 c9ae c6ae 9e07
000000f0: 91b3 05af e1ad 85a9 e3a9 5aaf 9da4 83af
00000100: f1ad d925 3120 43ab c324 e69c e7ac 66b3
00000110: 30a9 5ba3 d718 3528 80a3 1e2d 39a9 e620
00000120: 149f 2729 aca0 b9ad 64b0 c8ac a027 3827
00000130: bca9 c3ac dba9 4d23 2aaa b427 62ae 152a
00000140: 0fb1 5bac 2426 4ea9 2e9a 79b0 ceac a8ac
00000150: 25a4 f324 781f d5ab d72c fca8 3bb1 5bb3
00000160: 89a5 a3aa 36a9 a4a5 afac 6bb1 28ad 0b2a
00000170: dca9 32af 4e26 feac e128 7eae 0fa9 1e27
00000180: 1830 32a8 7a29 82a1 8eac 33ab cd2b b2b0
00000190: 1d94 4629 7e25 1199 889e 5bb0 c48d 0296
000001a0: 7ba3 4428 7529 5baf dba9 db27 ae2a 782c
000001b0: b228 eba2 492c 2c20 1cab 7a24 d2b0 e322
000001c0: d2a4 f22b 76a2 7024 762b 95a9 b629 892e
000001d0: 2026 d6ae 402f 56a6 3ca9 7fa6 ed99 94ad
000001e0: c92a 05ab 0522 22ac 91a6 65af 5d2b 2eab
000001f0: 9018 6ea5 aba5 e6ad 62ab 20aa b8a6 80b2
-0.06085 0.0348 -0.012566 -0.0521 -0.1354 -0.03143 -0.03473 -0.1583
-0.0729 0.02606 -0.113 0.003633 -0.02899 -0.0384 -0.04703 -0.0007863
-0.1145 -0.06525 0.01569 -0.01267 -0.11395 -0.0995 -0.00598 -0.05743
-0.08954 0.0639 0.0366 -0.001265 0.02863 0.05392 -0.1181 0.00701
-0.0921 -0.08344 -0.00686 -0.03625 0.05865 -0.02605 -0.0652 0.0625
-0.04742 -0.0184 -0.08356 -0.0802 0.10614 -0.03656 0.02953 -0.0963
0.05295 0.001247 -0.05823 0.01553 -0.003685 -0.0904 -0.0824 -0.2059
-0.1241 -0.2284 -0.0501 -0.1765 -0.01604 -0.1635 -0.0477 0.1053
-0.05038 -0.1613 -0.0336 -0.01341 -0.0778 -0.2063 -0.0517 -0.2299
-0.0705 -0.01692 -0.11755 -0.0735 -0.01335 -0.1759 0.07306 -0.02744
-0.0797 -0.189 -0.009766 -0.0601 -0.0969 -0.212 -0.05542 -0.006733
-0.1519 0.03665 -0.2228 -0.199 -0.01634 -0.0348 -0.1525 -0.02446
-0.1738 -0.204 0.02745 -0.2416 -0.02757 -0.001256 -0.0795 -0.11993
0.004997 -0.05222 0.1013 -0.05353 -0.05313 -0.12384 -0.1138 -0.1523
0.01017 -0.10895 0.06335 -0.09875 -0.2903 -0.106 -0.10583 0.0001162
-0.2365 -0.1097 -0.09186 -0.04312 -0.046 -0.11487 -0.01802 -0.1174
-0.09283 0.02284 0.00819 -0.05673 0.0186 -0.004784 -0.0766 -0.2312
-0.04053 -0.014366 0.002363 0.03287 -0.01465 0.07996 -0.0408 0.00957
-0.006912 0.04025 -0.009125 -0.0894 -0.1372 -0.0747 0.02979 0.0282
-0.0448 -0.0744 -0.04575 0.01426 -0.04816 0.03009 -0.09973 0.04752
-0.1581 -0.06805 0.02399 -0.04144 -0.003017 -0.1398 -0.0751 -0.07275
-0.01619 0.01933 0.007294 -0.0612 0.0756 -0.03894 -0.1635 -0.2299
-0.02162 -0.05185 -0.0407 -0.02203 -0.0732 -0.1693 -0.08057 0.0472
-0.04578 -0.1124 0.02463 -0.078 0.03812 -0.10144 -0.03952 0.0278
0.1279 -0.03278 0.0428 -0.01076 -0.07117 -0.05624 0.06094 -0.1467
-0.001004 0.0412 0.02145 -0.002474 -0.00638 -0.1361 -0.000352 -0.001467
-0.01461 0.03333 0.04263 -0.1149 -0.04575 0.03069 0.0522 0.0698
0.03668 -0.01351 0.06696 0.00815 -0.05554 0.01749 -0.1506 0.01345
-0.01883 0.06207 -0.01262 0.01733 0.0583 -0.0436 0.04462 0.1021
0.02393 -0.1068 0.1133 -0.02475 -0.0409 -0.02538 -0.002893 -0.08716
0.053 -0.05484 0.01176 -0.0646 -0.02565 -0.11554 0.05753 -0.0561
0.002228 -0.02121 -0.02214 -0.09216 -0.05768 -0.04785 -0.02625 -0.2031
