tf_lite_model.tflite (tflite, 142352 bytes, 6 tensors)

sequential_1/conv2d_2/BiasAdd/ReadVariableOp f4 [32]
000000 d2 e6 ea 3c b9 4a 8b bc 98 64 f9 bd 62 05 ab bc
       0.028674517 -0.017003404 -0.1217739 -0.02087659
000010 df 97 0b 3e 7b 2f b5 bc 80 2b 16 be 01 fa 86 bc
       0.13632153 -0.022117367 -0.14665031 -0.016476633
000020 2e ea bf bd fb 78 97 3d 14 56 47 3d a8 cf 85 3d
       -0.09370838 0.07396122 0.048666075 0.06533748
000030 e2 27 c4 bc 97 fa a7 bc ab 04 86 3c 4d 7a 42 bb
       -0.023944799 -0.020505233 0.016359648 -0.0029674948
000040 df 18 c7 bb 24 1e 77 bd 39 32 70 3d ff ac 03 be
       -0.006075963 -0.06033148 0.058641646 -0.12858962
000050 eb d8 bd bd 09 af bf bd 84 55 a2 bd 3a c9 25 bd
       -0.092698894 -0.09359557 -0.07926467 -0.040475108
000060 61 f6 93 bd 41 46 05 be a4 19 83 be 79 40 48 bb
       -0.072247274 -0.13015081 -0.256055 -0.0030556007
000070 69 e6 37 bc 63 0d 1d bd 92 22 f4 bc 80 b6 f5 bd
       -0.011224368 -0.038342845 -0.02980164 -0.119977

sequential_1/conv2d_3/BiasAdd/ReadVariableOp f4 [64]
000000 1e f9 62 be d6 22 26 3d 96 fe 49 bd 25 3a fa bd
       -0.22165343 0.040560566 -0.049315058 -0.122181214
000010 e0 ba b8 bd bb 44 20 bc 56 ea f4 bc fd b0 cf 3a
       -0.090200186 -0.009782012 -0.029896896 0.0015845593
000020 dd ef 69 bd 6d 77 98 bc 98 3c d3 bd b6 a6 fc bc
       -0.057113517 -0.018611634 -0.10314292 -0.030841213
000030 45 ff e4 bb 90 0d 88 bd 3c 20 83 bd 85 7b bd b9
       -0.0069884383 -0.06643212 -0.064026326 -0.00036140918
000040 4a f0 aa bd 2c 3a 10 bd 89 52 c8 bc 5d 4d f8 3c
       -0.08346613 -0.035211727 -0.024453418 0.030310327
000050 80 5c 07 be 61 70 28 bd c6 10 2e bc 79 b4 81 bd
       -0.1321888 -0.041122798 -0.010624116 -0.063332506
000060 84 ab 0e bd 1a 8b f9 bd 56 81 ae bd 22 60 e5 bd
       -0.03483154 -0.12184735 -0.085207626 -0.111999765
000070 d7 e6 56 bc 8e 92 00 3d d0 b1 5a b8 17 46 ae bd
       -0.01311656 0.031389765 -5.214085e-05 -0.08509462
000080 c9 ee a7 bd 5b 5d dc bc db 39 40 be 0c 46 5e bd
       -0.081998415 -0.026899984 -0.1877207 -0.05426602
000090 c8 ee cb 3c ed 08 7d bc 8a 93 25 bc bc c6 1a bc
       0.024894133 -0.015444023 -0.010105977 -0.009446796
0000a0 60 27 84 3b 60 2a 10 bd a3 49 b7 bd 10 84 d6 bc
       0.004033014 -0.035196662 -0.08949592 -0.02618602
0000b0 40 b6 98 bd 90 4a 70 bc 3d c7 39 bd 07 6f 50 bc
       -0.074566364 -0.014666215 -0.045356024 -0.0127217835
0000c0 b6 d8 b3 bc 41 9c b3 bd c2 b2 a5 bd 64 6c 1c bd
       -0.021953922 -0.087700374 -0.08090736 -0.038189307
0000d0 32 b4 45 bd 4e 32 96 bd 9a bb cc bc 2e ee ca 3c
       -0.04826755 -0.073338136 -0.0249918 0.024771776
0000e0 9a a9 39 bd b5 df 8a bc 5c 5c a9 bd 9e be 03 bd
       -0.04532776 -0.016952375 -0.08269569 -0.03216421
0000f0 fb aa b2 bd 19 8a ba 3c 9c 9d 9d bd d0 d4 78 bd
       -0.08724018 0.022770928 -0.07696077 -0.06074983

sequential_1/conv2d_2/Conv2D f4 [32, 3, 3, 1]
000000 36 e0 b0 3e ee 64 ca 3e 5f e2 d5 3e 00 d2 be 3d
       0.3454606 0.39530128 0.4177427 0.09317398
000010 07 dc 8f 3d 77 de 69 3d 61 93 f2 be 94 77 06 bf
       0.07024389 0.057096925 -0.47378066 -0.5252621
000020 48 7f d0 be ef 6f 9f 3c 74 84 b6 be 0d 06 07 bf
       -0.40722108 0.019462554 -0.3564793 -0.5274361
000030 00 1c 8e 3e ab f3 be 3d d4 5d 2b be 61 d0 00 3e
       0.27755737 0.0932382 -0.16735011 0.1257949
000040 68 b9 ae 3e 87 5c 9f 3e 1b b3 36 be 7b f4 f3 3d
       0.3412583 0.3112528 -0.17841761 0.11911865
000050 9c c1 96 3c c5 ab 3c bd af 99 2c 3e 9a 61 ed 3d
       0.018402867 -0.04606225 0.168555 0.11590882
000060 d8 bf ef 3d ac dc 1a 3e 25 f8 c3 bd a8 3f fb bd
       0.11706513 0.15123242 -0.09568814 -0.12268001
000070 dc ac 34 be 92 3f 24 3e 4c a7 5e 3d bd cc fe 3c
       -0.17644066 0.16039875 0.054358765 0.031103486
000080 1d b3 80 3e de 42 73 bc 78 b0 95 bd e3 89 74 3c
       0.25136653 -0.014847485 -0.07309049 0.014925453
000090 e0 97 e7 bd 51 ca 18 bf b4 2f 21 be 72 dd 26 bf
       -0.11308265 -0.5968371 -0.15740854 -0.6518165
0000a0 b9 26 24 be 12 6f be 3e 31 3e f5 be b8 c0 04 3e
       -0.16030397 0.37194115 -0.4789901 0.12964141
0000b0 2f 16 84 3e 23 2d c7 bc 0c 90 42 be 14 62 d9 be
       0.25798175 -0.024313515 -0.19000262 -0.4245764
0000c0 3d 4f 2d 3e 51 85 16 3d e5 20 69 be 21 31 a5 3e
       0.16924758 0.036748234 -0.22766455 0.32264045
0000d0 9b 12 64 3e ad dc ae 3c 96 3c 00 3e 85 ff 85 3c
       0.22272722 0.02134546 0.12523112 0.016357193
0000e0 e0 23 66 be 17 4d b4 3d d3 6d 83 3e 7d 60 8c 3d
       -0.22474623 0.08803766 0.25669727 0.06854341
0000f0 3d 30 57 be 9f 6a bb 3d 3d a1 f5 3d 5a 73 88 bc
       -0.21014495 0.09151196 0.119936444 -0.016656566
000100 e6 f3 e1 b9 00 ab 65 3c df 57 65 3d 77 b3 4d 3e
       -0.00043097063 0.01401782 0.055992004 0.20087992
000110 e0 d5 63 3e c2 9f 60 be c2 79 b7 3c 64 4b 71 be
       0.22249556 -0.21935943 0.022396926 -0.23563915
000120 0d 58 a9 bc 97 57 27 3d f9 80 f3 3d a9 6b b6 3d
       -0.020671869 0.040855017 0.11889834 0.08907253
000130 fc 85 f6 bc e9 aa 06 3e ae ea 53 3e fa 2d 9a 3d
       -0.030093186 0.13151135 0.20694992 0.075283006
000140 7d d1 d3 bd 7b b0 88 be 11 05 ba be e2 62 be be
       -0.10342691 -0.26697144 -0.3633199 -0.37184817
000150 11 eb 8b 3d 47 f8 33 bd 48 a3 7c bd 5d 3e 9c 3e
       0.06831945 -0.043937948 -0.061679155 0.3051633
000160 c1 f4 89 3e de 68 bc 3e 52 60 d5 be c4 74 12 be
       0.26944545 0.36798757 -0.4167505 -0.14302355
000170 58 9b 06 3e 24 04 44 3c 01 d4 3f be 08 90 21 be
       0.13145196 0.011963878 -0.18733217 -0.157776
000180 53 57 d0 3e 39 7c 41 3e 8a 73 78 3d 54 ce d0 3e
       0.40691623 0.18895043 0.06065706 0.40782416
000190 12 36 16 bf 7b df 71 be fb b1 22 bf 5c b0 e7 be
       -0.58676255 -0.23620407 -0.63552827 -0.4525174
0001a0 9e 84 61 3e 3a 71 13 bf 7d c7 73 3e a8 f3 d2 3e
       0.22023246 -0.57594645 0.23806567 0.4120152
0001b0 d1 9a 4a 3d 65 48 c9 bd 6f 92 e1 3d 9b df 0d 3e
       0.04946405 -0.09828261 0.11014258 0.1385483
0001c0 8e 95 b8 bd 16 38 c1 3d 78 70 6a 3d 75 49 93 3c
       -0.090129 0.09434526 0.057236165 0.017979363
0001d0 b4 81 3b 3d a8 69 5d be 5c 6e 09 3e 3e d5 a3 3d
       0.04577799 -0.21622336 0.13421005 0.07999657
0001e0 99 d3 a5 3e bb eb 87 3e c4 ae 0f bd a5 e7 58 bd
       0.32388 0.26547036 -0.03507878 -0.05295529
0001f0 a7 e2 7a be 2d a3 94 be 42 45 92 3e b3 5b 84 3d
       -0.24500524 -0.29030743 0.28568465 0.06462803
000200 a2 95 1b bf d5 84 9b 3e 12 6e 77 3e f8 dd 13 bf
       -0.60775197 0.3037478 0.24163082 -0.5776057
000210 b6 a9 49 3e 07 3f 8b 3e 20 ad 27 be 15 bf e4 be
       0.19693646 0.27196524 -0.16374636 -0.44677034
000220 5a 88 94 3c 12 76 c5 3e a6 c1 bc be 2b 3f db bc
       0.018131424 0.38566643 -0.36866492 -0.02676352
000230 13 98 84 3e f8 49 c4 be 15 bc 08 be ce 16 b7 3e
       0.25897273 -0.38337684 -0.13352998 0.35759586
000240 43 6e ec bd 62 b3 fb be 4d 07 ac be 7e 34 83 3e
       -0.11544468 -0.49160296 -0.3359932 0.25625986
000250 24 6d fc 3c c1 b8 b9 bd e1 2b 58 3e 1a 01 ab 3e
       0.030813761 -0.09068442 0.21110488 0.33399278
000260 c5 ed 15 3e 2e f1 20 3e 5b 0b 7a 3e d4 b6 78 3e
       0.14641483 0.15717003 0.24418394 0.24288493
000270 01 91 26 be 2f 35 93 3d 0c 95 c5 3e 22 3c 0f bf
       -0.16266252 0.07187878 0.38590276 -0.5595113
000280 a2 b1 d0 be fb f4 1b 3e 6b d2 d6 be 99 00 00 bf
       -0.40760523 0.15230171 -0.4195741 -0.5000091
000290 ad 33 3f be f5 4c ee be c9 ce ca 3d f2 19 47 3e
       -0.18672056 -0.4654309 0.099027224 0.19443491
0002a0 cf 6e 58 bd f8 0d db 3e 60 80 d4 3e 58 c5 54 3e
       -0.05284005 0.42784095 0.41504192 0.20778406
0002b0 f5 c1 c8 3d e3 b0 cc 3c 1a 95 af bd f1 10 1f 3e
       0.09802619 0.02498669 -0.08573361 0.15533806
0002c0 16 72 94 3d ed 42 32 3d b0 6d 2e 3e 05 cc 1c 3e
       0.07248323 0.043520857 0.1703403 0.15312202
0002d0 27 dd e7 bc ce 9c 2a 3e 89 fe 0d 3e 62 84 ac be
       -0.028303696 0.16661379 0.13866629 -0.3369475
0002e0 a5 ed a0 bd 00 74 7e 3e d3 a4 a7 be b8 1f aa 3d
       -0.07857827 0.24848938 -0.32742938 0.08306831
0002f0 9f 9a 72 3e 6e 0e b8 3d 89 c5 be bb ee 5c df 3d
       0.23691796 0.08987127 -0.005821888 0.10906397
000300 e1 0c 5f 3e 9f 2b fc 3d 2d a3 ba bd 7f 67 53 3c
       0.21782257 0.123130076 -0.091131546 0.012903093
000310 00 f9 a9 3d 2e f3 4d be 2f 7c 1e bd c8 31 03 3e
       0.08299446 -0.20112297 -0.03869265 0.12811959
000320 9f 6c 82 bc 8f b3 5b 3c 0c 3b 1f 3e 88 ea df ba
       -0.015920935 0.013409509 0.15549868 -0.0017083446
000330 11 ae 6a 3e f0 bb d8 3d 01 21 73 be 0a c6 f0 3d
       0.22917964 0.10582721 -0.23743059 0.11756523
000340 4f cd d7 bd 1f 31 97 3d 2e 65 08 3e d6 50 df 3d
       -0.105372064 0.07382416 0.13319847 0.1090409
000350 e8 01 03 3e 3d 28 e3 3c 46 fc 78 bc 67 2d c2 3d
       0.12793696 0.027729148 -0.015196865 0.09481316
000360 1a 1b f9 be 0f 62 64 be 61 fa 34 3e af ec be be
       -0.4865349 -0.22303031 0.17673637 -0.3728995
000370 19 8b d3 3d 3e 80 bf 3e 21 30 16 3e df e2 61 3e
       0.10329265 0.3740253 0.14666797 0.220592
000380 ea be 5e 3e c4 08 4d 3e bb 72 82 3e 6d 9a b0 be
       0.21752515 0.20022875 0.25478157 -0.34492818
000390 0b ed 37 be 36 91 3c 3e 43 12 c0 3d 83 46 68 be
       -0.17961518 0.18414769 0.09378483 -0.22683148
0003a0 27 5c f8 bc fe 81 6b 3e 49 84 0b 3e 96 f4 9e 3c
       -0.03031738 0.22998807 0.13624682 0.019403737
0003b0 aa 78 a1 bd 3b 61 f1 3d a7 df f5 3d 48 4f e9 bd
       -0.07884343 0.11786123 0.12005549 -0.11392075
0003c0 d9 74 ea bd d1 0f 19 3e ae 6c 84 3e bd f7 30 3d
       -0.11448068 0.1494744 0.25864166 0.04320501
0003d0 59 53 60 3e f8 d0 5a 3e 08 49 c4 3d 16 d8 37 3e
       0.21906795 0.21368778 0.09584242 0.17953524
0003e0 3c 48 af 3d 58 d6 90 be 41 e5 e8 be d1 64 7c bd
       0.085586995 -0.2828853 -0.45487407 -0.061619584
0003f0 7f 7b f8 bd f8 6e 15 be b3 85 70 be 21 7d 4e 3e
       -0.1213293 -0.14593112 -0.23488502 0.2016492

sequential_1/conv2d_3/Conv2D f4 [64, 3, 3, 32]
000000 a4 a2 44 be d0 a4 d6 3d 3f a4 13 3d 70 90 9b 3d
       -0.19202667 0.10480654 0.03604531 0.07595909
000010 cb 8b 2d 3d 0d 68 e2 bd 26 fc b9 bd f0 3d d4 3c
       0.042369645 -0.11055002 -0.090812966 0.02590844
000020 e4 b1 8d 3d d4 91 27 3d 8d e5 39 bd 8d 04 a2 3d
       0.069186956 0.040910557 -0.045384932 0.07911024
000030 90 39 96 3d a9 0d 5d 3e 37 ba 96 bc 45 f9 12 bd
       0.07335198 0.21587242 -0.018399341 -0.035882253
000040 2b 55 1d 3d 0e 1b a2 be ea cb 99 3d fb f2 49 bc
       0.0384113 -0.31661266 0.07509597 -0.012325997
000050 ca a5 07 be bb f6 23 3d 7f 6d c9 3b a8 f8 83 3d
       -0.13246837 0.040030222 0.006147086 0.06443912
000060 8d 62 62 3d ec 2d 7e be e4 80 c1 bd 8d 1b 22 be
       0.055269767 -0.24822205 -0.09448412 -0.15830822
000070 2c e1 4a bc cb 88 16 3e b2 be fb bb 00 da 98 39
       -0.012382787 0.1470062 -0.0076826448 0.00029154122
000080 d0 b8 4a 3e bc 6e 30 be 48 dc 2d 3d 0f df c7 3d
       0.19797063 -0.17229742 0.042446405 0.09759342
000090 e0 06 39 3d 9f a5 52 be 26 74 be bd 44 49 25 3d
       0.045172572 -0.20570992 -0.09299497 0.040353075
0000a0 19 c4 ba 3d 09 f9 ce bd 24 ed 70 be 87 92 80 3e
       0.09119434 -0.101060934 -0.23527962 0.25111791
0000b0 6d 35 2c bc 82 5c 23 3e 8f e7 e5 bd 59 dd 98 bd
       -0.010510785 0.15953258 -0.11225807 -0.07464094
0000c0 1e 7d 4c be a9 42 a8 be 00 15 73 3e 5e d7 aa bd
       -0.19969603 -0.32863358 0.2373848 -0.08341859
0000d0 84 f1 0f bd 76 a7 0f 3d 2a af bc 3d 81 cb a5 bd
       -0.035142437 0.035071813 0.092130974 -0.08095456
0000e0 f8 bb 5e 3e be 19 01 be 4b cd 01 be fe 92 a0 bd
       0.21751392 -0.12607476 -0.1267597 -0.078405365
0000f0 f8 f5 d9 bd e2 78 75 3e 51 5f 58 bd ab 9f 64 3d
       -0.10642618 0.23971894 -0.052825276 0.055816334
000100 8d 38 12 3e 51 fe 76 ba d2 29 b3 ba 5b 1b 26 bb
       0.14279385 -0.00094220514 -0.001366908 -0.0025345895
000110 78 14 25 be d0 9d c6 bd 97 aa 18 bd 6e 14 d3 bd
       -0.1612109 -0.09698069 -0.037272062 -0.10306631
000120 b0 82 3d bc 5f 99 4d 3d f5 93 de 3d e6 e1 48 bd
       -0.011566803 0.050195094 0.10868064 -0.04904356
000130 57 7c 4d bd e4 a5 9a 3d 6c ae 66 bd a8 cf 27 be
       -0.050167408 0.075511724 -0.056318685 -0.16387808
000140 40 94 e0 bb 64 d3 a4 3c d2 1f b7 bc 1d 14 9e bd
       -0.0068536103 0.02012033 -0.02235404 -0.0771868
000150 ef c4 b5 bc 8a 0e 6f bd 10 95 8d bc aa c6 35 bd
       -0.022188632 -0.058363475 -0.017282993 -0.044378914
000160 92 2a 0c 3e 91 4a 8c 3d 8e 07 2f 3d c1 6f 66 3d
       0.13688114 0.0685016 0.042731814 0.05625892
000170 3b 7e 37 bd 59 c2 0b 3e 57 4a 9d bd cc d4 5a bd
       -0.044798117 0.13648356 -0.07680195 -0.053425595
000180 61 57 b0 be 9e b8 98 3d 42 17 95 3d 4f a8 55 bb
       -0.34441665 0.07457088 0.07279827 -0.003260154
000190 eb 6a 95 bd 9e 86 76 bc 3d a1 c6 3d b8 51 0c bd
       -0.072957836 -0.015046744 0.096987225 -0.03425762
0001a0 32 e6 82 bc 23 b0 0d be 43 d1 0a be b3 56 b9 3d
       -0.015978906 -0.13836722 -0.1355639 0.0904974
0001b0 a3 8e af 3d 6b 5e 18 bc 1f 60 6c 3e ba 2f 2e 3d
       0.08572128 -0.009299855 0.23083542 0.042525984
0001c0 43 48 27 bd 00 f9 89 bd 8e dc 51 be a1 72 91 b9
       -0.0408404 -0.06736946 -0.20494291 -0.0002774196
0001d0 20 b5 81 bb 4f 50 c2 39 5f 8f dc 3b 83 99 9d 3c
       -0.0039583594 0.00037062398 0.0067309584 0.01923824
0001e0 8b 20 5b bd 9c 81 04 3e 4e 3b 04 3e 7e 04 b2 bd
       -0.053497832 0.12940067 0.12913248 -0.08692263
0001f0 85 d7 5e bc a0 5a 11 be 9c ae 6a bd a8 07 d7 bc
       -0.013601189 -0.14194727 -0.057295427 -0.026248768
000200 a0 1e ab bd a8 a4 01 bd 6f 5d 05 3d a0 c2 3c 3d
       -0.08355451 -0.03165117 0.03255981 0.046084046
000210 bf 54 72 bd 6f 02 ad bb 6c a9 63 bd 3e 41 4a bd
       -0.05916285 -0.005279831 -0.055581495 -0.049378626
000220 8b 46 7f 3d cb 97 0f be 53 f7 4e bd e6 d4 17 3e
       0.062323134 -0.14022748 -0.050528836 0.14827308
000230 a4 c9 4e bc 8c 94 12 3e 13 e2 84 3d b5 db 24 bd
       -0.012621317 0.14314479 0.06488433 -0.04024859
000240 5f ab 1a bd aa 06 b7 bd 20 b9 80 bd aa cb 19 bd
       -0.03776109 -0.08936818 -0.0628531 -0.037547745
000250 cc 8b 80 bd fc 80 87 bc 1a 0c d3 3c 17 81 26 bd
       -0.06276664 -0.016540997 0.025762606 -0.040650453
000260 5d 10 af 3d 74 ba 12 bd 39 45 c6 bc 36 1b 55 3c
       0.08548043 -0.035822347 -0.02420293 0.013006976
000270 03 c5 a2 3b dc 4d 31 3e 8e be a4 bd ca 52 1d 3d
       0.0049673333 0.17314857 -0.08044158 0.038409032
000280 57 cf 08 3c 57 05 0f be 25 58 2b bd 4d 83 31 ba
       0.008350215 -0.1396688 -0.041832108 -0.00067715795
000290 a8 6d e5 bc 66 a8 47 be 08 6e 40 ba ee 16 57 bd
       -0.02800639 -0.19497833 -0.00073406147 -0.0525121
0002a0 ee ef 91 bd 9c 08 d6 bd eb ba 85 3c 7d 08 27 3e
       -0.07125841 -0.10450861 0.016324481 0.16311832
0002b0 25 34 cd bb f1 44 cd 3c f8 44 b0 bd 31 29 0e 3d
       -0.0062623196 0.025057288 -0.08606905 0.034707252
0002c0 37 41 77 bd 41 dc 36 3e 0f 40 38 bd 3f 1a a9 ba
       -0.060364928 0.17857458 -0.044982966 -0.0012901499
0002d0 69 48 25 3e cb a4 d0 bd 1e 4b 40 3d 2a 3c 88 bc
       0.16140904 -0.10187682 0.046946637 -0.016630251
0002e0 08 11 31 3d ae d6 a8 3e 3d 3b 8a bc 2f 34 94 3d
       0.043229133 0.32976288 -0.01687395 0.07236516
0002f0 24 ea 02 be 7a a5 48 3e 4c 13 23 be 99 ea 8a 3d
       -0.1278463 0.19594374 -0.1592533 0.06783027
000300 56 9b 06 be cd 73 e7 bd 5b 06 19 bd 9c ed a2 3d
       -0.13145193 -0.11301384 -0.037359577 0.07955477
000310 18 57 e4 bd 3c 06 0e be 08 ea a6 bb 32 e7 ee 3c
       -0.11149424 -0.13869566 -0.0050938167 0.029162977
000320 f0 6b 66 bd c8 81 fa be ec 67 2d be 1b 52 e9 bc
       -0.05625528 -0.4892714 -0.16934174 -0.028481534
000330 72 d0 7a bb b1 e2 63 3d 5b 4e c8 3d be dc 63 3e
       -0.0038271216 0.05563611 0.0978057 0.22252175
000340 85 36 a9 be 27 22 2f 3e f0 ca 81 be fc 5c b6 3c
       -0.33049408 0.17102872 -0.25350142 0.022261135
000350 d4 ee f0 3d c2 d3 3f bd 76 bf 3b bc 51 2b db bd
       0.11764303 -0.046832807 -0.011459222 -0.10701621
000360 a6 d4 fc bd 22 56 23 3e 03 a4 2c bd 9a 24 25 bd
       -0.12345247 0.15950826 -0.0421486 -0.04031811
000370 88 4e 2b be dd 60 86 be 6c 97 5e bd f5 e0 ee ba
       -0.16729176 -0.26245776 -0.054343626 -0.0018225001
000380 b9 64 50 be 6d ab 97 3e 54 a4 c6 bd a0 9e b5 3c
       -0.20350923 0.29622975 -0.09699312 0.022170365
000390 36 74 05 bf 43 31 85 3e 73 b8 2f 3e c7 7d 3c 3c
       -0.5213045 0.26014146 0.17160206 0.011504597
0003a0 6b 89 64 3c 88 5e 97 3d 14 10 15 3d 94 52 1b bf
       0.013948779 0.07391077 0.036392286 -0.6067288
0003b0 e4 f8 8b 3d 1a 1b bf ba 85 98 aa 3e d4 4d 57 3e
       0.068345815 -0.001458022 0.33319488 0.21025783
0003c0 c9 6e 84 3e b7 2c 63 3e f1 74 f8 be f6 5d 48 bd
       0.25865772 0.22185026 -0.4852672 -0.048917733
0003d0 6c 30 08 3e e1 a3 5d 3d b0 4a bc bd 3b 6a 3d bd
       0.13299721 0.054111365 -0.09193933 -0.046243887
0003e0 5c 1d 0e bd 4f cf 57 3e 12 17 2d 3e b2 f1 07 bc
       -0.034695968 0.21075176 0.16903332 -0.008297371
0003f0 9d b4 e1 3d c5 b3 2b be c9 94 83 3d 59 5e 91 bd
       0.110207774 -0.16767795 0.06424863 -0.070980735

sequential_1/dense_1/BiasAdd/ReadVariableOp f4 [10]
000000 5c 78 35 3d 73 3b 24 3e 7e f0 5f bc 11 e1 82 bd
       0.044304237 0.16038303 -0.013668178 -0.06390584
000010 03 12 be bd ab cb 06 bd 18 6d 40 bc 6b fb 7c bc
       -0.09280779 -0.032909077 -0.01174476 -0.015440802
000020 98 ab 75 3c 38 1f 19 3c
       0.014994524 0.009345822

sequential_1/dense_1/MatMul f4 [10, 1600]
000000 32 4b 79 bd c8 87 0e 3d ca e1 4d bc c1 60 55 bd
       -0.060862727 0.03479746 -0.012566039 -0.052094225
000010 ad a1 0a be 37 bf 00 bd 6a 4c 0e bd 68 2b 22 be
       -0.13538237 -0.031432357 -0.034740843 -0.1583687
000020 19 4b 95 bd 97 75 d5 3c ab 66 e7 bd 6d 10 6e 3b
       -0.07289714 0.026057048 -0.11298879 0.0036325708
000030 81 7a ed bc e0 35 1d bd 26 a8 40 bd 4b 27 4e ba
       -0.028989078 -0.038381457 -0.04703536 -0.00078641315
000040 cb 82 ea bd a7 96 85 bd 47 77 80 3c 58 9b 4f bc
       -0.11450728 -0.06522875 0.015681876 -0.012671314
000050 6f 5a e9 bd 97 bb cb bd 3b 0e c4 bb 41 40 6b bd
       -0.11394202 -0.09947889 -0.0059831417 -0.057434324
000060 b4 63 b7 bd 86 ee 82 3d bc da 15 3d df c8 a5 ba
       -0.08954564 0.06393151 0.036585554 -0.0012648365
000070 7a 73 ea 3c d3 ed 5c 3d a5 e9 f1 bd 27 ba e5 3b
       0.028619517 0.053937744 -0.11812142 0.0070107165
000080 4d 92 bc bd 8b ef aa bd d6 b1 e0 bb e3 8e 14 bd
       -0.09207592 -0.083464704 -0.006857137 -0.03626908
000090 36 3d 70 3d 40 63 d5 bc 59 84 85 bd ff 09 80 3d
       0.058652125 -0.026048303 -0.06519384 0.062519066
0000a0 73 4a 42 bd 04 c6 96 bc 88 21 ab bd 67 3b a4 bd
       -0.04743428 -0.018404968 -0.08356005 -0.080191426
0000b0 5e 5b d9 3d 28 b3 15 bd ff e5 f1 3c 6b 34 c5 bd
       0.1061313 -0.03654781 0.029528616 -0.096291386
0000c0 f9 e3 58 3d ae 80 a3 3a 0b 81 6e bd e2 89 7e 3c
       0.052951787 0.0012474263 -0.058228534 0.0155358035
0000d0 af 82 71 bb 7b 21 b9 bd f2 cd a8 bd 9c e9 52 be
       -0.0036851575 -0.09039589 -0.08242406 -0.20596927
0000e0 52 29 fe bd 4a e1 69 be 96 3e 4d bd b3 cd 34 be
       -0.12410225 -0.22839847 -0.050108515 -0.17656593
0000f0 dc 54 83 bc 7d 52 27 be 20 5f 43 bd c8 a1 d7 3d
       -0.016031675 -0.1634006 -0.04769814 0.10528904
000100 84 67 4e bd 5e 20 25 be 19 93 09 bd 61 ca 5b bc
       -0.05039169 -0.16125628 -0.03358755 -0.01341495
000110 77 69 9f bd 5a 48 53 be 69 b4 53 bd 0d 61 6b be
       -0.07783788 -0.20633069 -0.051685724 -0.2298624
000120 be 55 90 bd c5 92 8a bc 63 ce f0 bd 66 7f 96 bd
       -0.07047604 -0.016915688 -0.11758115 -0.07348518
000130 7d cb 5a bc c0 28 34 be 68 a7 95 3d d8 cd e0 bc
       -0.013354179 -0.1759367 0.07307321 -0.027441904
000140 71 3c a3 bd a6 75 41 be e1 f4 1f bc 27 10 76 bd
       -0.07970513 -0.18892536 -0.0097629735 -0.060073998
000150 03 88 c6 bd c2 2b 59 be 5b fd 62 bd 3c ac dc bb
       -0.09693911 -0.21208099 -0.0554174 -0.006734399
000160 0c 86 1b be 19 23 16 3d 83 15 64 be 20 b3 4b be
       -0.15187854 0.036654565 -0.22273831 -0.1989255
000170 b9 ea 85 bc 20 70 0e bd df 24 1c be a0 64 c8 bc
       -0.016347276 -0.0347749 -0.1524844 -0.024462044
000180 32 0c 32 be b7 e9 50 be bf e6 e0 3c 3e 60 77 be
       -0.17387465 -0.20401655 0.027453778 -0.24157807
000190 e3 eb e1 bc c8 a2 a4 ba ad dd a2 bd 74 92 f5 bd
       -0.0275783 -0.001256072 -0.079524375 -0.11990824
0001a0 46 b0 a3 3b be de 55 bd d1 8c cf 3d 7b 49 5b bd
       0.0049953787 -0.052214377 0.101342805 -0.053536873
0001b0 3c 91 59 bd 85 9a fd bd ae 01 e9 bd 3f fd 1b be
       -0.053117022 -0.12382988 -0.113772735 -0.15233324
0001c0 48 a7 26 3c 7d 1b df bd a6 cb 81 3d 51 38 ca bd
       0.010171719 -0.10893915 0.06337671 -0.09874023
0001d0 d4 9c 94 be 39 15 d9 bd 55 c3 d8 bd 28 b6 f3 38
       -0.290259 -0.10599751 -0.10584132 0.00011621072
0001e0 ab 15 72 be d5 98 e0 bd d6 2e bc bd d7 90 30 bd
       -0.23641078 -0.109666504 -0.09188621 -0.04310688
0001f0 de 5d 3c bd 19 3d eb bd fb 90 93 bc 67 5c f0 bd
       -0.045987956 -0.11486263 -0.018013468 -0.11736374
000200 b2 1b be bd 92 15 bb 3c ab 2e 06 3c da 51 68 bd
       -0.09282626 0.022837434 0.008189837 -0.056718685
000210 8e 53 98 3c cb bd 9c bb 91 ee 9c bd 5e c3 6c be
       0.01859453 -0.0047833673 -0.076626904 -0.23121402
000220 20 0c 26 bd b1 60 6b bc 29 e0 1a 3b cd 96 06 3d
       -0.040538907 -0.014366315 0.0023632145 0.03285866
000230 b2 0b 70 bc 38 bc a3 3d 55 11 27 bd 75 c0 1c 3c
       -0.014651226 0.07994884 -0.040788013 0.00956737
000240 53 82 e2 bb eb e1 24 3d 6e 84 15 bc ec 12 b7 bd
       -0.0069125085 0.040254515 -0.009125812 -0.08939156
000250 03 8a 0c be 64 f0 98 bd 4b 0b f4 3c db 05 e7 3c
       -0.13724522 -0.07467726 0.029790541 0.028201034
000260 39 76 37 bd 6f 5e 98 bd 59 6c 3b bd ab 97 69 3c
       -0.04479048 -0.07439887 -0.045757625 0.014257352
000270 b1 3d 45 bd 77 85 f6 3c 14 38 cc bd 0d 90 42 3d
       -0.048154537 0.030092938 -0.099716336 0.04750066
000280 82 dd 21 be a8 61 8b bd 97 89 c4 3c db b6 29 bd
       -0.15807155 -0.06805736 0.02399139 -0.04143415
000290 3d b8 45 bb 3a 1b 0f be 85 c6 99 bd 8f fe 94 bd
       -0.003016963 -0.1397523 -0.07508568 -0.07275116
0002a0 e3 a6 84 bc 7a 62 9e 3c 30 fa ee 3b 45 a9 7a bd
       -0.016192859 0.019334067 0.0072930083 -0.061196584
0002b0 27 e7 9a 3d bf 84 1f bd 25 65 27 be 75 63 6b be
       0.0756362 -0.038944956 -0.16347177 -0.22987159
0002c0 16 2a b1 bc 6d 67 54 bd 97 c0 26 bd 02 7f b4 bc
       -0.021626513 -0.051856447 -0.04071101 -0.022033218
0002d0 17 d9 95 bd 48 51 2d be 8c 02 a5 bd 92 64 41 3d
       -0.07316797 -0.16925538 -0.080571264 0.047215052
0002e0 df 7a 3b bd 9b 31 e6 bd f5 c1 c9 3c 77 be 9f bd
       -0.045771476 -0.1123993 0.024628619 -0.078
0002f0 f4 18 1c 3d 43 c4 cf bd 15 e1 21 bd 48 cc e3 3c
       0.038109735 -0.10144856 -0.039521296 0.02780737
000300 c5 0f 03 3e 06 41 06 bd c6 4b 2f 3d 6f 30 30 bc
       0.12798984 -0.032776855 0.042796873 -0.010753735
000310 fa cc 91 bd a9 63 66 bd 0d a4 79 3d f5 41 16 be
       -0.07119174 -0.056247387 0.060947467 -0.14673598
000320 b9 af 83 ba 41 b4 28 3d 24 b5 af 3c 81 26 22 bb
       -0.0010046876 0.04118753 0.02144868 -0.0024742188
000330 31 0f d1 bb 1a 68 0b be f7 72 b8 b9 6c 4b c0 ba
       -0.006379985 -0.1361393 -0.0003518087 -0.0014670915
000340 e2 6b 6f bc 5c 8a 08 3d fb 9a 2e 3d f3 5f eb bd
       -0.014613124 0.033335075 0.04262827 -0.1149291
000350 89 65 3b bd 50 6d fb 3c 7c cb 55 3d cc f4 8e 3d
       -0.04575113 0.030691773 0.05219601 0.06980285
000360 4c 48 16 3d b1 53 5d bc bd 1d 89 3d cb 81 05 3c
       0.03669004 -0.013508723 0.06695125 0.008148621
000370 43 8c 63 bd bd 45 8f 3c 04 32 1a be 16 58 5c 3c
       -0.055553686 0.017489308 -0.15058142 0.013448736
000380 9f 33 9a bc cd 38 7e 3d d2 b7 4e bc 92 05 8e 3c
       -0.018823443 0.06206589 -0.012617068 0.01733664
000390 f6 c5 6e 3d 7d 98 32 bd 53 bf 36 3d 63 19 d1 3d
       0.05829426 -0.043602455 0.044616055 0.1020992
0003a0 b3 fd c3 3c 00 b9 da bd d0 0f e8 3d fb c6 ca bc
       0.023924684 -0.10679817 0.11331141 -0.024753084
0003b0 7c 80 27 bd e9 d2 cf bc 4f a4 3d bb 02 89 b2 bd
       -0.040894017 -0.025369124 -0.0028937047 -0.087175384
0003c0 ed 22 59 3d 2d 9c 60 bd d2 a8 40 3c 2c 49 84 bd
       0.053011823 -0.05483644 0.011759 -0.06459269
0003d0 69 24 d2 bc b2 91 ec bd 60 a3 6b 3d 7c b3 65 bd
       -0.025652127 -0.11551227 0.057528853 -0.056079373
0003e0 71 04 12 3b 7b cb ad bc 0a 59 b5 bc d6 b0 bc bd
       0.002228048 -0.021215191 -0.022137184 -0.09213416
0003f0 f5 45 6c bd fc 04 44 bd de 0b d7 bc db f5 4f be
       -0.057683904 -0.047856316 -0.026250776 -0.2030863
